checkpoint1.pth (torch_old, 21220 bytes, 6 tensors)

fc1.weight f4 [64, 10]
000000 16 09 7e 3e a4 80 ca 3d b5 6a 4c 3e d8 b3 88 3e
       0.24808154 0.098878175 0.1996258 0.2669971
000010 b1 ae 27 3f a3 85 00 be 79 7a fe 3e 47 46 1e be
       0.6550093 -0.12550978 0.49702814 -0.15456496
000020 bd aa 41 3e e5 d5 8b bf 24 e6 c9 be c2 a1 09 40
       0.18912788 -1.092465 -0.39433396 2.150498
000030 c8 33 c5 3f 28 b2 ad c0 63 fa a3 3f de 63 90 40
       1.5406427 -5.4279976 1.2810787 4.512191
000040 8c 6a 88 bf a8 63 39 40 4f de f3 be 67 ed 1a 40
       -1.0657516 2.8967075 -0.47630545 2.42074
000050 53 f1 34 bf 1a 34 16 bf ef 53 d8 be 86 84 62 bf
       -0.7068073 -0.5867325 -0.42251536 -0.88483465
000060 2e f2 99 bf 3e 31 cb bf 9c 9d 13 c0 85 ee 12 c0
       -1.2027032 -1.5874403 -2.3064947 -2.295808
000070 6f e7 02 c0 8c 12 11 be d2 b8 08 bf ab 0c d1 3f
       -2.0453756 -0.14167231 -0.53407013 1.6331991
000080 0f 16 30 3f 14 b0 ae 3e 04 50 ee bd 6f cc 7f c0
       0.6878366 0.34118712 -0.116363555 -3.9968526
000090 f2 3d 98 3f 70 d6 80 c0 4f 38 81 40 8d c0 52 c0
       1.1893904 -4.0261765 4.0381236 -3.2930024
0000a0 ef 78 f1 be f0 66 8c 3f 0b 45 c9 3f 30 be ba bf
       -0.47162578 1.0968914 1.5724195 -1.4589291
0000b0 e2 27 02 c0 3f 70 7c 40 0e 34 99 3f fb c1 71 3d
       -2.0336843 3.944351 1.1969011 0.059022885
0000c0 ff 64 18 40 ae 13 91 40 a2 e3 69 c0 aa e9 30 40
       2.3811643 4.5336523 -3.6545186 2.7642617
0000d0 bf 56 c9 3f e8 fa 0c c0 0b 0b 8c bf 5f 59 04 40
       1.5729598 -2.202814 -1.094087 2.0679548
0000e0 a1 12 b6 3f 8a bc a8 3e 31 67 0f 3f f4 8f 47 40
       1.4224435 0.32956344 0.5601683 3.1181612
0000f0 08 54 3c c0 de 14 42 be ea 3d 84 c0 e8 8a 64 3d
       -2.9426289 -0.18953273 -4.132558 0.055796534
000100 e5 76 3d 3f 15 c7 55 c0 10 f8 e0 bf 98 0a 5a 40
       0.74009544 -3.340276 -1.7575703 3.4068966
000110 a3 51 7f 3f 56 8c 4f c0 34 82 ec bd 9d 56 a7 3d
       0.9973394 -3.2429404 -0.11548272 0.08170817
000120 05 90 bc be c3 23 82 bd da c3 81 3e 2d c7 94 be
       -0.36828628 -0.06354477 0.25344735 -0.2905821
000130 f8 05 9a be 36 42 e6 be 2e aa 7f bf 29 da 93 bf
       -0.3008268 -0.4497239 -0.9986905 -1.1550952
000140 92 61 1c 3f 3d 07 8b bf 6b 67 f5 3f 06 9b 1f 40
       0.6108638 -1.0861584 1.9172186 2.4938369
000150 dc 50 a7 bf c8 45 83 3e 08 5a 54 3f 85 9e a3 bd
       -1.3071551 0.25639176 0.82949877 -0.079892196
000160 fc c1 e7 3e 70 ba 1c 3f 62 33 54 40 ac 64 1a 40
       0.45265186 0.6122198 3.3156362 2.4123945
000170 e2 c1 81 3f a9 9e c6 be 9f 06 32 bf 73 55 f7 3f
       1.0137293 -0.38792923 -0.69541353 1.9322952
000180 7e e8 e3 3f 51 b7 ed 3f 28 bc c1 40 c4 36 3f 40
       1.7805326 1.8571569 6.0542183 2.9877176
000190 08 05 00 be 8b ce de 3e 3a 27 6b be 16 e3 1e 3e
       -0.1250192 0.43516955 -0.22964182 0.15516314
0001a0 be 2f 82 3e 3e e8 17 bf db 78 a3 be 0b bd 8d be
       0.2542705 -0.5933875 -0.31928143 -0.2768329
0001b0 5c 97 4c bf 9b 2e 94 bf ff 9c 26 3f 72 88 31 c0
       -0.79918456 -1.1576723 0.6508331 -2.773953
0001c0 c6 56 90 3f de 81 00 40 c6 9e 32 c0 28 0f 0a bf
       1.1276481 2.0079265 -2.7909408 -0.53929377
0001d0 cf b7 2e 40 36 4a 2d 40 b2 90 bd be 6e 06 e8 3e
       2.7299688 2.7076545 -0.37024456 0.45317405
0001e0 2b 65 c7 be df 31 71 3e b5 50 a1 3f 18 0f b1 bf
       -0.38944373 0.2355418 1.2602755 -1.3832731
0001f0 0c ec 78 bf d2 48 9e 3f 7a 1c de 3f 84 47 57 bf
       -0.9723518 1.2365973 1.735244 -0.840935
000200 bb 6b d6 3f 02 f4 28 bf a2 64 f8 3f 4d 93 81 3f
       1.6751627 -0.65997326 1.9405711 1.0123078
000210 cc 28 25 bf 22 26 16 bf 9d 19 b5 3f 48 b7 a6 3f
       -0.64515376 -0.58651936 1.4148442 1.3024683
000220 ed 2b 02 c0 cf 20 35 c0 c0 fa e2 3f 79 02 28 40
       -2.033931 -2.8301275 1.7732773 2.625151
000230 20 5a 52 bd 0e fa 7d 3e 26 7b b1 bc 91 8c a6 3d
       -0.05135548 0.2480242 -0.021665167 0.0813228
000240 59 e4 18 3e cd d1 07 bf bf a6 29 bf 6a b4 b2 bc
       0.14930858 -0.53054506 -0.6627006 -0.021814544
000250 12 d3 43 bf 21 06 b1 bf 4c b0 a5 bd 93 02 23 3f
       -0.7649394 -1.3829995 -0.080902666 0.636758
000260 d1 70 7b be 10 7e 75 3e 53 f7 47 3f c1 16 d0 bd
       -0.24554755 0.2397387 0.7811176 -0.1016059
000270 2c 24 e0 be 44 88 2e bf be 8f 18 bf 90 23 94 bf
       -0.43777597 -0.68176675 -0.59594333 -1.1573353
000280 5a f3 d1 3e db 33 b0 bf 14 b3 15 c0 cf e2 cf 3d
       0.41005975 -1.3765825 -2.339055 0.10150682
000290 9f f3 9e 3e 31 f2 9e 3d 3f a5 b1 3f c8 b3 f3 bf
       0.31045243 0.07761038 1.3878554 -1.903924
0002a0 03 6f 32 c0 40 9d 2c bf bc af b4 bf 3e 29 50 40
       -2.7880256 -0.67427444 -1.411613 3.2525172
0002b0 f5 b9 9b 3f 3c ed 95 c0 e0 51 18 40 14 c4 be 3f
       1.2166125 -4.6852093 2.3799973 1.4903588
0002c0 7e f1 2b 3f 1f ce 8d 3f 15 04 c3 bf e4 b8 5d 40
       0.6716536 1.1078528 -1.5235621 3.4644098
0002d0 a0 01 20 40 a4 a7 9e bf 5b 66 89 bf f6 88 fb 3f
       2.5000992 -1.239491 -1.0734361 1.9651172
0002e0 8a 79 bd bc 29 39 72 bd eb af cb 3f 5e 1c b5 40
       -0.023129243 -0.059136543 1.5913061 5.659713
0002f0 a2 79 07 be ef f9 a8 c0 35 40 47 40 b2 07 51 40
       -0.13229993 -5.2805095 3.113294 3.2660947
000300 15 f7 a2 3f e9 53 7d 3f 7c 63 06 3f 4a 65 9e 3f
       1.2731653 0.9895616 0.5249555 1.2374661
000310 df f7 e4 bf f1 d2 fb 3f 07 53 29 40 1e a7 02 40
       -1.7888144 1.9673749 2.6456926 2.04145
000320 24 c2 fe 3e 66 42 3a 3f ea d2 a5 be ef 57 6e 3f
       0.49757493 0.72757566 -0.32387477 0.93102926
000330 77 3b af 3e 17 7c 47 bd 3d a4 5e bc 5f cf eb be
       0.34225056 -0.048702326 -0.013588962 -0.4605665
000340 4f 2c 30 bf dc 46 13 bf 69 a7 f8 be a3 2d 4f 3f
       -0.6881761 -0.5753 -0.48565224 0.8092901
000350 74 3e 93 3f 3d ab 80 be 62 da b4 3d 27 83 d2 bf
       1.1503434 -0.25130644 0.08830716 -1.6446275
000360 c1 a7 db be ba f6 41 c0 58 36 48 40 4c ea 88 c0
       -0.42901424 -3.030684 3.1283169 -4.2786007
000370 b3 cc 09 3e e7 60 e7 3e 08 bc d9 bf 3d 9f 54 bf
       0.13456993 0.45191118 -1.7010508 -0.8305548
000380 b2 6f 45 bd 92 97 c8 bf 50 73 34 c0 f3 22 22 40
       -0.048202224 -1.5671256 -2.819538 2.5333831
000390 7e bc a0 c0 c9 72 5c c0 4a 20 8e c0 69 1b ae bf
       -5.0230093 -3.444506 -4.4414415 -1.3602115
0003a0 63 47 32 3e 64 39 55 40 c1 19 0d 3f de 9c a3 3f
       0.17410044 3.3316278 0.5511742 1.2782247
0003b0 1d 39 43 bd 70 8b ec bf 5c 64 94 3f 99 57 ff 3f
       -0.04766189 -1.8480053 1.1593127 1.9948608
0003c0 4e 90 80 3e 53 f4 76 bf a5 99 7d 3f 74 7f 5a 3f
       0.25110096 -0.9646656 0.9906257 0.8535073
0003d0 35 a5 2b bf 69 b9 ee c0 40 b9 03 3e 84 d5 f5 3f
       -0.6704896 -7.460133 0.12863636 1.9205785
0003e0 0b b6 a6 bf 98 94 63 40 39 e6 89 3f 46 2f 57 be
       -1.3024305 3.5559444 1.0773383 -0.21014127
0003f0 a7 5f 00 c0 1f 10 cd 3e a4 ad 44 40 01 ac 06 c0
       -2.0058382 0.40051362 3.0730982 -2.1042483

fc1.bias f4 [64]
000000 1c 33 63 40 ae cf 78 3d 6c 18 67 40 d9 c5 1e 40
       3.5499945 0.060744934 3.6108656 2.4808257
000010 f2 cc da 3f 02 83 18 40 b2 af e6 3f 71 5d 7d 40
       1.7093794 2.382996 1.8022368 3.9588282
000020 be 55 d9 3f 9f ed 6f 3f e4 44 7e 40 da 36 15 40
       1.6979291 0.93721956 3.9729548 2.3314729
000030 b6 31 0a 40 9a 1b 3f 40 98 4e 83 40 15 30 7c 40
       2.159284 2.9860597 4.103344 3.9404347
000040 48 e4 00 40 48 e4 09 40 41 4e 84 3f f6 60 03 40
       2.0139332 2.1545582 1.0336381 2.052793
000050 5b 73 7c 40 f8 81 26 40 c8 67 14 40 cf 7a fd 3f
       3.9445407 2.6016827 2.3188343 1.9803103
000060 40 02 01 3f cb d1 c5 3f b0 4c 03 40 d1 84 32 40
       0.5039406 1.5454649 2.0515556 2.7893565
000070 ca d8 78 40 b1 06 55 bc ff 9d 29 40 21 a6 43 40
       3.8882318 -0.013002084 2.6502683 3.0570147
000080 a4 97 7a 40 5b 83 83 40 fd 29 dd 3f 9e b0 31 40
       3.9155054 4.1097846 1.7278439 2.7764049
000090 64 4a ff 3f 5b 01 71 40 65 bb 42 40 31 ca 15 40
       1.9944577 3.7657077 3.0426877 2.3404658
0000a0 41 5e 18 40 53 66 cf bf 49 4a 82 40 ac 61 13 3d
       2.3807528 -1.6203102 4.071568 0.03598182
0000b0 30 21 82 40 9c 15 65 40 d5 aa 21 40 1f b4 d9 bd
       4.066551 3.579444 2.5260518 -0.106300585
0000c0 8b 70 d1 3f 81 ba 76 40 3e 00 a4 3f 71 ed 15 40
       1.636247 3.8551333 1.2812574 2.3426173
0000d0 99 90 7e 40 af ad 65 3f 76 fe 02 40 99 dc 63 40
       3.9775755 0.89718145 2.046781 3.5603392
0000e0 c9 2f e0 3e af 5e 33 3f 4f 37 d6 3f b5 59 7a 40
       0.43786457 0.7006635 1.6735629 3.9117253
0000f0 38 62 87 3e 40 5c 4f bf e4 ed b7 3f ed 63 33 40
       0.26442122 -0.8100014 1.4369473 2.802974

fc2.weight f4 [64, 64]
000000 86 7b 17 40 07 35 bf 40 0b b8 31 3f 33 fd cd 40
       2.3669143 5.975223 0.6942145 6.437158
000010 04 f8 9b 40 04 11 a1 40 54 06 b2 40 e3 b9 df 3f
       4.8740253 5.033327 5.5632725 1.7478603
000020 84 08 27 40 8f 98 b8 40 34 ea f8 3f 36 87 9a 40
       2.6098948 5.768623 1.9446473 4.8290052
000030 f8 ec 3c 40 70 1d 93 40 cf 68 06 40 2e 59 fd 3f
       2.9519634 4.5973434 2.100147 1.979284
000040 b3 47 54 40 c3 09 bc 40 60 a5 c2 40 41 34 8d 40
       3.3168762 5.8761916 6.0826874 4.4126287
000050 cc b1 1c 40 b0 06 9b 40 58 a1 ba 40 ef dd 92 40
       2.4483519 4.8445663 5.8321953 4.5895915
000060 1c 23 bb 40 50 dc d2 40 cf 0e 8b 40 f6 a1 84 40
       5.848036 6.5893936 4.3455577 4.1447706
000070 67 7b 30 40 3b 73 f8 40 fc 37 63 40 0f c1 3d 40
       2.757532 7.764066 3.550292 2.9649084
000080 f6 d3 16 40 45 63 b7 3f dd 59 71 40 8f 8e 4f 40
       2.356687 1.432717 3.7711098 3.243076
000090 38 6b 60 40 a9 55 ce 3f 73 1e 4c 40 7d 04 87 40
       3.506544 1.6119891 3.1893585 4.219298
0000a0 3c 48 11 40 af 3c eb 40 86 36 d9 3f 18 ee a8 40
       2.2700338 7.3511577 1.6969764 5.279064
0000b0 06 36 10 40 26 c9 1d 40 4f 65 9b 40 2c 38 ad 40
       2.2532973 2.4654021 4.856117 5.413107
0000c0 5b 42 e5 40 af 2d 20 40 49 f2 84 40 07 86 2f 40
       7.16435 2.5027883 4.154576 2.7425554
0000d0 86 54 d8 3f 7d 00 9e 40 ac 0b b5 40 a5 7f 24 40
       1.6900795 4.9375596 5.657675 2.5702908
0000e0 a8 c6 f8 40 3c a0 b0 40 3c 5e b9 40 95 38 1b 40
       7.77425 5.51956 5.792753 2.4253285
0000f0 85 7e 28 40 1c a4 c6 40 55 12 aa 40 3c f3 44 40
       2.6327221 6.207533 5.314738 3.0773458
000100 46 13 31 bc 11 18 88 3d 29 ee 3d bd c5 20 8a bd
       -0.010807818 0.06645215 -0.046369705 -0.067445315
000110 44 26 a1 3c fc cf 05 be 44 df 06 be e2 18 1e be
       0.019671567 -0.13067621 -0.13171107 -0.1543918
000120 ea af 90 3d c5 fe 1e bc c9 7d ab bc 51 a7 22 be
       0.07064803 -0.0097042965 -0.020934002 -0.15884139
000130 a8 78 00 be 59 86 c4 bd aa 49 8f 3d d7 74 2d be
       -0.12546027 -0.09595937 0.06996472 -0.16939102
000140 a1 ec ad bb 24 1f 45 3c f1 75 b4 3d 87 c9 79 3d
       -0.0053077494 0.01203135 0.08811558 0.060983207
000150 cc 96 13 bd e3 dc 93 bd 50 97 df bd 1f 1f fa bc
       -0.036032483 -0.07219865 -0.109175324 -0.030532418
000160 5f 5c 4e be 6b dc e6 3c 35 93 2e be e7 ab ad 3d
       -0.20152424 0.028181275 -0.17048343 0.084800534
000170 a5 37 12 be 39 f9 82 3c a2 8e 9a bc f2 e8 16 be
       -0.14279039 0.01598798 -0.01886684 -0.14737299
000180 e0 b6 3a 3d bf 21 1f be 78 f6 c4 3c c9 ad f7 bd
       0.04558456 -0.15540217 0.024043307 -0.12093694
000190 3a 00 a1 bd b0 ea a6 bc 7b eb b8 bd c6 71 b1 bd
       -0.07861371 -0.02037558 -0.09029289 -0.08664279
0001a0 3c 2f 2f be 03 07 76 3d 51 97 2c be 6a a2 b5 3c
       -0.17107862 0.06006528 -0.16854598 0.022172172
0001b0 1d be 14 be b1 69 81 3c a3 7b 7c bd 8f d8 69 bd
       -0.14525647 0.015797468 -0.061641347 -0.057091292
0001c0 7a c1 1c bd 44 84 29 bb a2 80 bb bd ab ba 65 3d
       -0.03827045 -0.002586619 -0.09155394 0.056086224
0001d0 3c 24 16 bd e2 b3 14 be 38 a5 21 3d 81 b6 1c be
       -0.03665565 -0.14521745 0.039464206 -0.15303995
0001e0 da 99 89 3d ad 7e 16 bd 1e 8d 44 be e1 ff 3a be
       0.06718798 -0.0367419 -0.19194457 -0.18261673
0001f0 50 c0 b0 3d b9 b8 26 3d 5c c1 57 bd 71 c9 c4 bd
       0.08630431 0.04070351 -0.052674636 -0.096087344
000200 39 1a 09 be ee 75 fe bd 6d 31 0a be 24 c5 a6 bd
       -0.1338891 -0.12424837 -0.13495417 -0.0814307
000210 3e 03 81 3d 12 7e de bd 0d 4d 10 be 62 61 94 3d
       0.062994465 -0.1086389 -0.14091893 0.07245137
000220 9b 78 7e bd 3a da fb bc 1e d4 81 3d bf 86 56 bd
       -0.062126737 -0.030743707 0.06339286 -0.052374598
000230 b6 41 f7 3d d8 45 93 bd a4 cf a4 3d cb 2f f4 bd
       0.1207308 -0.07191056 0.08047417 -0.11923178
000240 5a 66 af bc d5 13 4f 3d 71 0b 1a 3d 5a 0e 2d bd
       -0.02141111 0.050556023 0.037608568 -0.042250015
000250 fe 80 2c bd 3c 7b 17 be 2a bb 1e bd a0 ad 12 3d
       -0.042115204 -0.14793104 -0.038752712 0.035810113
000260 e2 9b 28 3c f5 7b d7 bd 11 01 ce bd 7a 7b cc 39
       0.010291072 -0.1052169 -0.10058797 0.0003900191
000270 62 ca 13 be e8 d1 fb bd 92 c4 92 3d c4 71 19 be
       -0.14432672 -0.12295896 0.07166399 -0.14984804
000280 b7 3e 98 3c ae e4 1d bc 57 4b 9b 3d 5c 67 53 bd
       0.018584592 -0.009637041 0.07582729 -0.051612243
000290 1f ab 85 bc cc 96 13 be 1e e5 92 bc 72 78 8e bd
       -0.016316948 -0.14412993 -0.017931517 -0.06956567
0002a0 42 03 06 be 9a d5 a2 3d 22 6a 2c 3d d4 f0 b9 bd
       -0.1308718 0.079508975 0.042093404 -0.090791374
0002b0 6b c7 fc bb 05 4c bc bd f0 29 c4 bc 00 4c eb 3a
       -0.007714202 -0.09194187 -0.023945779 0.0017951727
0002c0 78 1b 53 3c 42 c8 be bd b8 01 fc bd 0e d2 15 be
       0.012884967 -0.0931554 -0.12305015 -0.14630911
0002d0 31 76 13 be ca 9c 42 bd 50 f0 87 3c a4 fd 1e bd
       -0.14400555 -0.047512807 0.016594082 -0.03881611
0002e0 d2 01 b1 bd 5d 09 d6 bd 03 79 78 3d d1 0d 6b bd
       -0.08642925 -0.10451005 0.06066228 -0.057386223
0002f0 e1 d6 73 bc 12 cc 92 bd 09 3b 5f bc 92 15 5e 3c
       -0.014882774 -0.071678296 -0.013624915 0.013554947
000300 65 58 98 3f cb d9 10 c0 4d 22 8b 40 83 a1 2b c0
       1.1901976 -2.263293 4.347937 -2.681733
000310 49 71 3b c0 55 eb dd bf 81 e0 48 c0 f9 d3 38 40
       -2.9287894 -1.7337443 -3.1387026 2.8879378
000320 da 2a b1 be 1e 3f 66 c0 04 ac 3a 40 2d cf 1e c0
       -0.34603006 -3.5976024 2.916749 -2.481395
000330 72 2f 42 bf 41 8d a5 bf d0 04 2c 40 5f a1 2c 40
       -0.75853646 -1.2933732 2.6877937 2.6973493
000340 b3 44 8d 3e fb df 8e bf 21 ad 91 c0 1c 7a 46 c0
       0.27591476 -1.1162103 -4.552384 -3.101203
000350 ac ba f6 3f c3 52 1b c0 b9 73 ee bf 83 68 68 be
       1.9275718 -2.4269264 -1.8629066 -0.22696118
000360 d5 a7 e7 3b 7f 56 97 c0 c8 67 92 bf cb c4 a4 be
       0.0070695677 -4.7293086 -1.1437922 -0.3218139
000370 b7 00 ff 3f 57 c5 63 bf 77 be 00 be 83 29 46 bf
       1.9922093 -0.8897299 -0.12572657 -0.7740709
000380 95 b4 f2 3f 0b fc 69 40 20 ca 47 bd 5e e8 4f bf
       1.8961359 3.6560085 -0.048776746 -0.8121394
000390 4a 2b c4 be fb 43 51 40 12 60 9e 3e d1 6b 61 bf
       -0.38314277 3.2697742 0.3093267 -0.8805514
0003a0 f6 31 53 be 52 ba 58 c0 f1 c6 3d 40 a0 20 44 c0
       -0.20624527 -3.386372 2.9652674 -3.0644913
0003b0 23 88 0b 40 63 87 84 3f 6a 5e a4 bf d7 3e f9 be
       2.1801841 1.0353817 -1.2841313 -0.48680755
0003c0 db c7 06 c0 70 cb f4 3f a2 87 30 bf 44 ad b0 be
       -2.1059482 1.9124584 -0.6895696 -0.3450719
0003d0 43 b6 40 40 bc 6e f8 bf b4 b6 63 bf bd 8d b7 3f
       3.0111244 -1.9408793 -0.8895066 1.434013
0003e0 e0 db a5 c0 dd 04 08 bf 34 4a b4 bf 1c a9 d9 3f
       -5.18309 -0.5313242 -1.4085145 1.7004733
0003f0 8b 7e fa 3e f8 b0 67 c0 86 12 da be 8b 00 8e bf
       0.4892467 -3.6201763 -0.42592257 -1.1093916

fc2.bias f4 [64]
000000 64 78 f1 3f 6b 80 fa 3c 32 af 01 be 71 a8 0a 40
       1.8864865 0.030578813 -0.12664488 2.1665308
000010 8c 87 c6 bd c0 72 2a 40 7a db d4 be 77 52 de 3f
       -0.09693822 2.6632538 -0.41573697 1.7368916
000020 c8 31 87 bc fe 7c 08 bf 49 bd d7 3f 91 40 16 40
       -0.01650323 -0.5331572 1.685464 2.3476908
000030 25 3f 0e bf 8b 71 b4 3f e5 15 c4 bd 3a af b9 3f
       -0.555651 1.409715 -0.095744886 1.45066
000040 ae f3 27 be 3d 80 d6 be d8 20 1f bf 48 39 ae 3f
       -0.1640155 -0.41894713 -0.6215949 1.3611231
000050 19 7e 24 bf 55 35 18 40 ca d9 bc 3f 42 fb b1 3f
       -0.6425491 2.3782551 1.4753964 1.3904803
000060 1c 04 37 bf 95 c6 04 bf 50 9c 09 bf fd 31 0f 40
       -0.71490645 -0.5186551 -0.5375414 2.237426
000070 d9 45 06 40 01 da 14 be 86 cc f4 bd 95 ea 0e be
       2.0980132 -0.14536287 -0.11953072 -0.13956673
000080 77 f8 c8 be f8 dd 1d 40 8a 78 ea 3f 88 2a 21 bf
       -0.39252064 2.466673 1.8318036 -0.6295552
000090 a0 22 b4 bd 8f d6 bf 3f 44 9c 0a 40 89 24 de 3f
       -0.08795667 1.4987353 2.1657877 1.73549
0000a0 b2 00 15 40 37 b7 fa 3f db 7b a7 3f 86 d6 39 bf
       2.3281674 1.9587163 1.3084673 -0.7259296
0000b0 29 eb 0c 40 02 95 11 bf 52 2c 04 40 ba 60 0a 40
       2.201853 -0.5686799 2.065205 2.1621537
0000c0 78 59 b2 bd 40 9a d6 3f 65 d0 16 bf bf ac 1b 40
       -0.08708471 1.6765823 -0.58911735 2.4324186
0000d0 44 47 10 3d d0 61 f1 3f 9a fb 17 be 1e 80 eb 3f
       0.035224214 1.8857975 -0.14842072 1.8398473
0000e0 5f ce 1c 40 06 5e 04 bf 19 b7 39 40 ef 72 25 bf
       2.450096 -0.5170597 2.9018004 -0.646285
0000f0 64 89 74 be 02 54 0c 40 f0 bd dc 3f 78 ec 1c 40
       -0.23880535 2.1926274 1.7245464 2.451933

fc3.weight f4 [3, 64]
000000 09 6a 78 40 97 72 3f 3d 9c 6d 6f 3d 00 00 3e c0
       3.8814719 0.04674014 0.05845414 -2.96875
000010 ec 06 0f bc f5 3b 8a 40 cb e2 f2 3d 8b 22 79 40
       -0.008729678 4.319819 0.118596636 3.8927333
000020 3b 86 af 3c 50 41 75 3d 3d 50 7a 40 db 6c 4f c0
       0.02142631 0.05987674 3.9111474 -3.241019
000030 18 60 35 be 0c 67 77 40 68 a4 8f 3c 55 2a 7c 40
       -0.17712438 3.8656645 0.01753445 3.9400837
000040 7e 41 97 3d b0 0e bf 3c 0d 09 8f be b3 5e 6a 40
       0.073855385 0.023322433 -0.27936593 3.66203
000050 b7 11 cc 3e 41 0d 57 c0 77 2e 72 40 68 87 6f 40
       0.39857265 -3.360184 3.784086 3.7426395
000060 e1 76 b3 be ae a3 6e be 58 f3 4e be d9 b9 88 40
       -0.35051635 -0.23304626 -0.20210016 4.2726865
000070 9d c7 6a 40 c2 9a ca bd 90 11 78 3d 89 e4 c5 bd
       3.6684334 -0.09892799 0.060563624 -0.0966273
000080 26 04 fa bc 82 50 81 bf 80 e8 6a 40 d3 4c b2 be
       -0.030519556 -1.0102694 3.6704407 -0.34824237
000090 dc a1 01 3d 6e 80 7d 40 02 03 61 40 34 92 73 40
       0.0316485 3.9609637 3.5158086 3.8057985
0000a0 ef aa 82 40 9e e1 5f 40 3b bf 67 40 c1 5e 71 be
       4.083366 3.4981456 3.6210468 -0.23571302
0000b0 b0 13 81 40 9b ae a7 be 39 70 65 40 00 bf 5d c0
       4.0336533 -0.327504 3.5849745 -3.4647827
0000c0 e9 41 dc bd 74 fe 7c 40 01 28 51 be b1 2f 69 c0
       -0.10754759 3.9530306 -0.20425417 -3.6435359
0000d0 eb 43 8f 3b 80 44 70 40 ec 89 ae bd 96 1c 7d 40
       0.00437211 3.754181 -0.085224 3.9548697
0000e0 4c 8e 97 40 73 05 be 3d b4 6e 8c c0 24 37 26 be
       4.73612 0.09278383 -4.3885136 -0.16231972
0000f0 a9 97 09 be 70 c2 91 40 ae 13 75 40 42 21 87 40
       -0.1343676 4.554985 3.8293262 4.22281
000100 85 e9 69 40 25 6f 8e 3d 71 c8 41 3d a6 d6 04 3f
       3.654878 0.06954793 0.047310296 0.5189003
000110 fb c8 6a bd d3 d9 a1 40 ad 27 b8 be 67 62 60 40
       -0.057320576 5.05784 -0.3596777 3.506006
000120 81 f4 5e 3d a2 d7 d8 be 8b d5 6d 40 40 46 63 3f
       0.054432396 -0.42352015 3.7161586 0.8877907
000130 6c 30 90 be 38 4c 63 40 d5 f1 a5 bc f4 aa 66 40
       -0.28161943 3.551527 -0.020256916 3.6041842
000140 4c 7d dc bb ca 05 00 bf b9 a5 8c be f8 df 5e 40
       -0.0067288037 -0.50008833 -0.27470186 3.48242
000150 cf be e9 be 80 75 17 3f 0c f3 5c 40 3c 4d 5d 40
       -0.45653388 0.59163666 3.4523344 3.457839
000160 8b 23 0d bf 06 0f e5 be b5 9d 0f bf b0 0e 71 40
       -0.5513236 -0.44738024 -0.56100017 3.7665215
000170 71 8a 9d 40 94 c1 57 3d ac 29 b8 3d 0c e5 c5 3d
       4.9231496 0.052674845 0.08992323 0.09662828
000180 bf 31 c1 be f1 de 14 40 4f 6e 55 40 fc 0f c5 be
       -0.37733266 2.3261073 3.3348577 -0.38488758
000190 3e 53 cd 3d 1b f7 6d 40 d2 93 42 40 ee 57 65 40
       0.10025643 3.7182071 3.0402722 3.5834918
0001a0 b0 c8 9c 40 38 2e 41 40 e9 06 58 40 bf 04 d2 be
       4.899498 3.018446 3.3754218 -0.41019246
0001b0 37 2e 74 40 71 f8 e4 be f9 48 a1 40 9b 24 f2 3e
       3.8153207 -0.44720796 5.040158 0.47293553
0001c0 64 c3 b7 3c 2a 97 79 40 c1 0b e4 be 3b 09 0e 3f
       0.022432037 3.8998513 -0.44540218 0.55482835
0001d0 69 e4 e5 3c be 21 64 40 7c 66 9b 3d 26 a5 67 40
       0.028063016 3.5645595 0.07587907 3.6194549
0001e0 4f fc 82 40 d6 fe 02 bf c2 2b 0e c0 06 4f e4 be
       4.0932994 -0.511701 -2.2214208 -0.4459154
0001f0 0b e5 b9 bc 16 3e 70 40 df 0a 62 40 96 22 82 40
       -0.022692224 3.7537894 3.5319135 4.066722
000200 3a 02 83 40 2f 1c 73 bd e6 08 15 3d 83 38 da c0
       4.094022 -0.05935305 0.03638544 -6.8193984
000210 d2 c0 50 bd a0 dd 92 40 aa 3b 76 be 2f ee 80 40
       -0.050965138 4.589554 -0.24046198 4.029075
000220 0d db eb 3d d7 3f 5f 3d 02 a5 79 40 f1 04 dc c0
       0.1151639 0.05450424 3.9006963 -6.875603
000230 31 b0 c6 be a9 c2 7f 40 03 f8 ca bd 49 f4 7c 40
       -0.38806298 3.996256 -0.09910586 3.95241
000240 b9 17 b4 bd 21 80 00 be fe 91 cf be 87 55 85 40
       -0.08793587 -0.12548877 -0.4054107 4.1666903
000250 98 5c 59 be 66 f1 dc c0 3c 9f 82 40 34 6e 87 40
       -0.21226728 -6.9044676 4.081938 4.2322025
000260 a2 62 1b be 64 9d 37 be 80 0f 83 be 93 be 8a 40
       -0.15174344 -0.17931134 -0.25597763 4.3357635
000270 75 65 8c 40 a8 8a 78 3d 27 94 cf 3d 78 13 45 3d
       4.387385 0.060679108 0.1013568 0.04811427
000280 c6 25 a3 be cc 01 59 c0 52 76 43 40 0a f1 dd bd
       -0.31864756 -3.3907347 3.0540967 -0.1083699
000290 38 1b 84 3d be e9 7c 40 d0 93 13 40 d1 03 83 40
       0.06450504 3.9517665 2.3058968 4.094216
0002a0 1e 5d 90 40 5a ef 3c 40 1a 4f 89 40 7e fb 2a be
       4.511367 2.9521089 4.290906 -0.16697499
0002b0 f0 1c 87 40 47 ab 28 be 13 5e 84 40 fc 66 dc c0
       4.2222824 -0.16471587 4.1364837 -6.8875713
0002c0 3c 6a 48 3d 3f d3 7b 40 5a 1f 90 3c d0 92 d7 c0
       0.048929438 3.9347684 0.017593075 -6.7366714
0002d0 aa 13 a2 3c d9 a1 4b 40 65 41 8e bd 10 6c 85 40
       0.019784767 3.1817534 -0.06946067 4.169441
0002e0 a8 eb 8c 40 df ef c9 bd 0b 6f 20 c1 5f f4 b6 be
       4.4037666 -0.09860205 -10.02711 -0.35733315
0002f0 8f 11 15 3e 44 44 8a 40 94 00 84 40 6a d4 8f 40
       0.1455748 4.320833 4.1250706 4.4946795

fc3.bias f4 [3]
000000 34 0c d1 3f ac c3 9f 3f 26 84 de bd
       1.6331849 1.2481589 -0.10865049
